Kaggle Public Score : 0.33912
epoch : 250
batch_size : 128

Layer (type)                 Output Shape              Param #   
=================================================================
dense_26 (Dense)             (None, 1024)              2360320   
_________________________________________________________________
batch_normalization_20 (Batc (None, 1024)              4096      
_________________________________________________________________
dropout_20 (Dropout)         (None, 1024)              0         
_________________________________________________________________
leaky_re_lu_20 (LeakyReLU)   (None, 1024)              0         
_________________________________________________________________
dense_27 (Dense)             (None, 1024)              1049600   
_________________________________________________________________
batch_normalization_21 (Batc (None, 1024)              4096      
_________________________________________________________________
dropout_21 (Dropout)         (None, 1024)              0         
_________________________________________________________________
leaky_re_lu_21 (LeakyReLU)   (None, 1024)              0         
_________________________________________________________________
dense_28 (Dense)             (None, 1024)              1049600   
_________________________________________________________________
batch_normalization_22 (Batc (None, 1024)              4096      
_________________________________________________________________
dropout_22 (Dropout)         (None, 1024)              0         
_________________________________________________________________
leaky_re_lu_22 (LeakyReLU)   (None, 1024)              0         
_________________________________________________________________
dense_29 (Dense)             (None, 1024)              1049600   
_________________________________________________________________
batch_normalization_23 (Batc (None, 1024)              4096      
_________________________________________________________________
dropout_23 (Dropout)         (None, 1024)              0         
_________________________________________________________________
leaky_re_lu_23 (LeakyReLU)   (None, 1024)              0         
_________________________________________________________________
dense_30 (Dense)             (None, 7)                 7175      
=================================================================
Total params: 5,532,679
Trainable params: 5,524,487
Non-trainable params: 8,192
_________________________________________________________________