Kaggle Public Score : 0.66146
epoch : 250
batch_size : 128

Layer (type)                 Output Shape              Param #   
=================================================================
conv2d_15 (Conv2D)           (None, 48, 48, 32)        320       
_________________________________________________________________
batch_normalization_7 (Batch (None, 48, 48, 32)        128       
_________________________________________________________________
leaky_re_lu_22 (LeakyReLU)   (None, 48, 48, 32)        0         
_________________________________________________________________
conv2d_16 (Conv2D)           (None, 48, 48, 32)        9248      
_________________________________________________________________
batch_normalization_8 (Batch (None, 48, 48, 32)        128       
_________________________________________________________________
leaky_re_lu_23 (LeakyReLU)   (None, 48, 48, 32)        0         
_________________________________________________________________
average_pooling2d_8 (Average (None, 24, 24, 32)        0         
_________________________________________________________________
dropout_11 (Dropout)         (None, 24, 24, 32)        0         
_________________________________________________________________
conv2d_17 (Conv2D)           (None, 24, 24, 64)        18496     
_________________________________________________________________
batch_normalization_9 (Batch (None, 24, 24, 64)        256       
_________________________________________________________________
leaky_re_lu_24 (LeakyReLU)   (None, 24, 24, 64)        0         
_________________________________________________________________
conv2d_18 (Conv2D)           (None, 24, 24, 64)        36928     
_________________________________________________________________
batch_normalization_10 (Batc (None, 24, 24, 64)        256       
_________________________________________________________________
leaky_re_lu_25 (LeakyReLU)   (None, 24, 24, 64)        0         
_________________________________________________________________
average_pooling2d_9 (Average (None, 12, 12, 64)        0         
_________________________________________________________________
dropout_12 (Dropout)         (None, 12, 12, 64)        0         
_________________________________________________________________
conv2d_19 (Conv2D)           (None, 12, 12, 64)        36928     
_________________________________________________________________
batch_normalization_11 (Batc (None, 12, 12, 64)        256       
_________________________________________________________________
leaky_re_lu_26 (LeakyReLU)   (None, 12, 12, 64)        0         
_________________________________________________________________
conv2d_20 (Conv2D)           (None, 12, 12, 64)        36928     
_________________________________________________________________
batch_normalization_12 (Batc (None, 12, 12, 64)        256       
_________________________________________________________________
leaky_re_lu_27 (LeakyReLU)   (None, 12, 12, 64)        0         
_________________________________________________________________
average_pooling2d_10 (Averag (None, 6, 6, 64)          0         
_________________________________________________________________
dropout_13 (Dropout)         (None, 6, 6, 64)          0         
_________________________________________________________________
conv2d_21 (Conv2D)           (None, 6, 6, 128)         73856     
_________________________________________________________________
batch_normalization_13 (Batc (None, 6, 6, 128)         512       
_________________________________________________________________
leaky_re_lu_28 (LeakyReLU)   (None, 6, 6, 128)         0         
_________________________________________________________________
conv2d_22 (Conv2D)           (None, 6, 6, 128)         147584    
_________________________________________________________________
batch_normalization_14 (Batc (None, 6, 6, 128)         512       
_________________________________________________________________
leaky_re_lu_29 (LeakyReLU)   (None, 6, 6, 128)         0         
_________________________________________________________________
average_pooling2d_11 (Averag (None, 3, 3, 128)         0         
_________________________________________________________________
dropout_14 (Dropout)         (None, 3, 3, 128)         0         
_________________________________________________________________
flatten_5 (Flatten)          (None, 1152)              0         
_________________________________________________________________
dense_12 (Dense)             (None, 2048)              2361344   
_________________________________________________________________
batch_normalization_15 (Batc (None, 2048)              8192      
_________________________________________________________________
dropout_15 (Dropout)         (None, 2048)              0         
_________________________________________________________________
leaky_re_lu_30 (LeakyReLU)   (None, 2048)              0         
_________________________________________________________________
dense_13 (Dense)             (None, 1024)              2098176   
_________________________________________________________________
batch_normalization_16 (Batc (None, 1024)              4096      
_________________________________________________________________
dropout_16 (Dropout)         (None, 1024)              0         
_________________________________________________________________
leaky_re_lu_31 (LeakyReLU)   (None, 1024)              0         
_________________________________________________________________
dense_14 (Dense)             (None, 512)               524800    
_________________________________________________________________
batch_normalization_17 (Batc (None, 512)               2048      
_________________________________________________________________
dropout_17 (Dropout)         (None, 512)               0         
_________________________________________________________________
leaky_re_lu_32 (LeakyReLU)   (None, 512)               0         
_________________________________________________________________
dense_15 (Dense)             (None, 7)                 3591      
=================================================================
Total params: 5,364,839
Trainable params: 5,356,519
Non-trainable params: 8,320
_________________________________________________________________
