Kaggle Public Score : 0.68514
epoch : 350
batch_size : 128

_________________________________________________________________
Layer (type)                 Output Shape              Param #   
=================================================================
conv2d_11 (Conv2D)           (None, 48, 48, 32)        320       
_________________________________________________________________
batch_normalization_14 (Batc (None, 48, 48, 32)        128       
_________________________________________________________________
leaky_re_lu_14 (LeakyReLU)   (None, 48, 48, 32)        0         
_________________________________________________________________
conv2d_12 (Conv2D)           (None, 48, 48, 32)        9248      
_________________________________________________________________
batch_normalization_15 (Batc (None, 48, 48, 32)        128       
_________________________________________________________________
leaky_re_lu_15 (LeakyReLU)   (None, 48, 48, 32)        0         
_________________________________________________________________
average_pooling2d_6 (Average (None, 24, 24, 32)        0         
_________________________________________________________________
dropout_8 (Dropout)          (None, 24, 24, 32)        0         
_________________________________________________________________
conv2d_13 (Conv2D)           (None, 24, 24, 64)        18496     
_________________________________________________________________
batch_normalization_16 (Batc (None, 24, 24, 64)        256       
_________________________________________________________________
leaky_re_lu_16 (LeakyReLU)   (None, 24, 24, 64)        0         
_________________________________________________________________
conv2d_14 (Conv2D)           (None, 24, 24, 64)        36928     
_________________________________________________________________
batch_normalization_17 (Batc (None, 24, 24, 64)        256       
_________________________________________________________________
leaky_re_lu_17 (LeakyReLU)   (None, 24, 24, 64)        0         
_________________________________________________________________
average_pooling2d_7 (Average (None, 12, 12, 64)        0         
_________________________________________________________________
dropout_9 (Dropout)          (None, 12, 12, 64)        0         
_________________________________________________________________
conv2d_15 (Conv2D)           (None, 12, 12, 64)        36928     
_________________________________________________________________
batch_normalization_18 (Batc (None, 12, 12, 64)        256       
_________________________________________________________________
leaky_re_lu_18 (LeakyReLU)   (None, 12, 12, 64)        0         
_________________________________________________________________
conv2d_16 (Conv2D)           (None, 12, 12, 64)        36928     
_________________________________________________________________
batch_normalization_19 (Batc (None, 12, 12, 64)        256       
_________________________________________________________________
leaky_re_lu_19 (LeakyReLU)   (None, 12, 12, 64)        0         
_________________________________________________________________
average_pooling2d_8 (Average (None, 6, 6, 64)          0         
_________________________________________________________________
dropout_10 (Dropout)         (None, 6, 6, 64)          0         
_________________________________________________________________
conv2d_17 (Conv2D)           (None, 6, 6, 128)         73856     
_________________________________________________________________
batch_normalization_20 (Batc (None, 6, 6, 128)         512       
_________________________________________________________________
leaky_re_lu_20 (LeakyReLU)   (None, 6, 6, 128)         0         
_________________________________________________________________
conv2d_18 (Conv2D)           (None, 6, 6, 128)         147584    
_________________________________________________________________
batch_normalization_21 (Batc (None, 6, 6, 128)         512       
_________________________________________________________________
leaky_re_lu_21 (LeakyReLU)   (None, 6, 6, 128)         0         
_________________________________________________________________
average_pooling2d_9 (Average (None, 3, 3, 128)         0         
_________________________________________________________________
conv2d_19 (Conv2D)           (None, 3, 3, 128)         147584    
_________________________________________________________________
batch_normalization_22 (Batc (None, 3, 3, 128)         512       
_________________________________________________________________
leaky_re_lu_22 (LeakyReLU)   (None, 3, 3, 128)         0         
_________________________________________________________________
conv2d_20 (Conv2D)           (None, 3, 3, 128)         147584    
_________________________________________________________________
batch_normalization_23 (Batc (None, 3, 3, 128)         512       
_________________________________________________________________
leaky_re_lu_23 (LeakyReLU)   (None, 3, 3, 128)         0         
_________________________________________________________________
average_pooling2d_10 (Averag (None, 2, 2, 128)         0         
_________________________________________________________________
dropout_11 (Dropout)         (None, 2, 2, 128)         0         
_________________________________________________________________
flatten_2 (Flatten)          (None, 512)               0         
_________________________________________________________________
dense_5 (Dense)              (None, 2048)              1050624   
_________________________________________________________________
batch_normalization_24 (Batc (None, 2048)              8192      
_________________________________________________________________
dropout_12 (Dropout)         (None, 2048)              0         
_________________________________________________________________
leaky_re_lu_24 (LeakyReLU)   (None, 2048)              0         
_________________________________________________________________
dense_6 (Dense)              (None, 1024)              2098176   
_________________________________________________________________
batch_normalization_25 (Batc (None, 1024)              4096      
_________________________________________________________________
dropout_13 (Dropout)         (None, 1024)              0         
_________________________________________________________________
leaky_re_lu_25 (LeakyReLU)   (None, 1024)              0         
_________________________________________________________________
dense_7 (Dense)              (None, 1024)              1049600   
_________________________________________________________________
batch_normalization_26 (Batc (None, 1024)              4096      
_________________________________________________________________
dropout_14 (Dropout)         (None, 1024)              0         
_________________________________________________________________
leaky_re_lu_26 (LeakyReLU)   (None, 1024)              0         
_________________________________________________________________
dense_8 (Dense)              (None, 7)                 7175      
=================================================================
Total params: 4,880,743
Trainable params: 4,870,887
Non-trainable params: 9,856
_________________________________________________________________